class-ai-samples-master/mnist.onnx (onnx, 247816 bytes, 8 tensors)

conv1.weight f4 [6, 1, 5, 5]
-0.1252869 -0.20517781 -0.013834714 -0.20447724 -0.34663063 0.15154898 -0.09407048 -0.25097242
-0.13032834 -0.17283925 -0.1214902 0.016962143 0.2161295 0.2318631 0.06594134 0.16888948
0.2707676 0.26544747 0.19557345 0.15041496 0.09600959 0.018966788 0.21042703 -0.018033024
0.08370437 0.11353722 0.075548455 0.24043849 0.14111483 0.03924396 -0.11557163 -0.19190693
-0.06607401 0.3918577 0.04478055 -0.41247267 -0.27642396 0.22671625 0.28478205 0.03761005
-0.120144255 -0.02316848 0.32760656 0.22594213 0.118714966 -0.3479614 -0.0033399751 0.30251658
0.278316 0.19318676 0.16148812 0.13753061 0.18457305 0.15758061 -0.080974296 0.04853351
0.06342709 -0.10007462 -0.034085907 0.06138366 -0.16101739 -0.088064045 0.040584736 -0.056272324
-0.08099488 -0.16222166 -0.06906688 0.03975204 -0.04284798 -0.039646983 0.112309195 -0.13622256
-0.14889048 -0.0806068 -0.11303259 -0.15362234 0.22580057 0.14817336 0.009186748 0.1362826
0.018493986 0.29781544 -0.079348125 0.16785812 -0.24157038 0.20027368 0.18965834 0.101705305
-0.017046373 -0.16290367 0.20846565 0.2266935 -0.11087406 -0.32863635 -0.18834382 -0.036740396
-0.16318095 -0.30356106 -0.1914994 0.023749258 0.3291681 0.41953835 0.40070042 0.34788722
0.30471203 -0.09508071 0.15066245 0.22462487 0.23657998 0.44966933 -0.31943095 0.0007875768
0.0277877 -0.07422797 0.14244409 -0.3665291 -0.21006387 -0.30285385 -0.30842254 -0.092305884
-0.51082885 -0.37788287 -0.38920224 -0.12919906 0.08844536 -0.015546263 0.027628375 -0.24743597
-0.39205176 -0.45151433 0.085047856 0.06892384 0.18443723 0.21545048 -0.076704554 -0.1516757
0.09307267 0.15853241 0.44578823 0.39289954 0.008949988 0.0584788 0.17451073 0.057596374
0.20807244 0.008052785 -0.14348876 -0.3676438 -0.27135256 -0.029857326
00000000: 364b 00be 221a 52be ffaa 62bc 7b62 51be
00000010: 9279 b1be a82f 1b3e 06a8 c0bd 757f 80be
00000020: cb74 05be c6fc 30be dbcf f8bd 31f4 8a3c
00000030: 0d51 5d3e 856d 6d3e 410c 873d 5df1 2c3e
00000040: 0da2 8a3e bbe8 873e 6844 483e 6106 1a3e
00000050: ada0 c43d 3d60 9b3c 2f7a 573e feb9 93bc
00000060: 326d ab3d 3486 e83d 26b9 9a3d 8235 763e
00000070: 6880 103e 46be 203d d2b0 ecbd 4083 44be
00000080: d051 87bd 93a1 c83e cf6b 373d 9e2f d3be
00000090: 7187 8dbe 4e28 683e f4ce 913e ff0c 1a3d
000000a0: 310e f6bd d3cb bdbc 0cbc a73e 605d 673e
000000b0: d520 f33d ff27 b2be 7ce3 5abb 74e3 9a3e
000000c0: 6f7f 8e3e c0d2 453e 245d 253e d3d4 0c3e
000000d0: b800 3d3e d05c 213e dad5 a5bd 13cb 463d
000000e0: 10e6 813d ecf3 ccbd aa9d 0bbd 6f6d 7b3d
000000f0: bee1 24be ec5a b4bd 2e3c 263d cf7d 66bd
00000100: a5e0 a5bd 6f1d 26be f072 8dbd 09d3 223d
00000110: 5d81 2fbd e064 22bd 5d02 e63d ed7d 0bbe
00000120: bf76 18be 2e15 a5bd a17d e7bd 2d4f 1dbe
00000130: 4438 673e c2ba 173e 0484 163c aa8d 0b3e
00000140: b380 973c 447b 983e 4581 a2bd 00e3 2b3e
00000150: 3a5e 77be 8b14 4d3e cc35 423e df4a d03d
00000160: d6a4 8bbc 38d0 26be 0578 553e 5722 683e
00000170: f011 e3bd 0643 a8be 34dd 40be 197d 16bd
00000180: e818 27be 5b6c 9bbe 6b18 44be ce8d c23c
00000190: b988 a83e bbcd d63e 9b28 cd3e 461e b23e
000001a0: 3703 9c3e adb9 c2bd 4247 1a3e 1004 663e
000001b0: 0642 723e 0f3b e63e 748c a3be 6275 4e3a
000001c0: 08a3 e33c d504 98bd dddc 113e b4a9 bbbe
000001d0: fc1a 57be a90f 9bbe 8fe9 9dbe de0a bdbd
000001e0: aec5 02bf dd79 c1be 8445 c7be c24c 04be
000001f0: d722 b53d c1b5 7ebc e754 e23c db5f 7dbe
00000200: 02bb c8be e32c e7be 922d ae3d f127 8d3d
00000210: 1ddd 3c3e 0d9f 5c3e 4717 9dbd e050 1bbe
00000220: e29c be3d 5256 223e 5b3e e43e 212a c93e
00000230: f8a2 123c 7787 6f3d f1b2 323e 2dea 6b3d
00000240: f110 553e d4ef 033c b8ee 12be cf3b bcbe
00000250: b9ee 8abe 5a97 f4bc

conv2.weight f4 [16, 6, 5, 5]
0.059792634 -0.07736358 -0.11108811 -0.054800004 0.015806006 0.023257017 0.072994456 0.0675894
-0.013559282 -0.021063441 0.100065306 0.08905752 0.12008755 -0.079459906 -0.09483199 0.044757403
0.10097658 0.09520153 -0.03509017 -0.11230337 -0.123043776 0.05908283 0.06461323 -0.044707928
-0.03437647 -0.008046019 -0.1611883 -0.03438901 0.022960447 -0.01323935 0.039466526 -0.023894178
-0.18351904 -0.08466765 -0.015361376 0.22416334 0.07746092 -0.11046689 -0.13338615 -0.09118911
0.12209738 0.20696242 0.007644816 -0.17832226 -0.09258512 -0.05151698 0.2485438 0.24003464
0.026622474 -0.11786028 -0.0053145546 0.041081984 0.044514112 -0.01416379 0.07456388 -0.053362817
0.005602547 0.06601716 0.011846257 0.047483653 -0.040874276 -0.019933375 -0.07550124 0.047746312
0.043694794 0.028216332 -0.013470384 -0.020766133 -0.07424312 0.019254806 -0.039100636 -0.08241342
-0.047397804 -0.12772888 -0.068005525 -0.0050411383 0.021938326 -0.03884592 0.03495137 0.057688765
0.0034986322 0.054758895 -0.08407003 0.0019762325 -0.005100606 -0.05310661 -0.025756206 0.059458476
-0.056317616 -0.008927009 -0.006790851 -0.01883256 -0.017390043 -0.013915114 -0.09144393 -0.097135946
0.0010892807 0.03641635 0.10253502 0.054810133 -0.15591535 -0.21290651 -0.07014589 0.020256374
0.08287871 -0.070100024 -0.0015404286 0.06774358 0.02964715 0.06259434 0.13008411 -0.13455828
-0.03344472 -0.018294428 0.08111259 -0.043922625 -0.018683499 -0.0652796 -0.1274921 -0.06334515
-0.01465522 0.09393662 -0.059264828 -0.2064957 -0.039969847 0.032432735 0.019509474 -0.041959677
-0.010934689 0.01701482 0.14446872 0.043712247 -0.015626367 0.11287959 -0.051909942 0.07998122
0.15953532 -0.055906095 0.04174604 0.04075213 -0.042755865 0.06845887 0.040977433 0.0014627246
-0.07034092 -0.11113931 -0.050819572 0.037537865 -0.044789333 -0.07708613 -0.07054054 -0.13454925
-0.1396934 -0.005229973 0.08281803 -0.060024425 -0.2289836 -0.09468861 0.09359599 0.01973473
0.014390637 -0.031943943 -0.018846177 0.10378752 -0.15956621 0.048985265 0.056512572 0.06348712
-0.03928746 -0.1554299 -0.014928584 -0.05340424 0.066703 0.11196893 -0.080998614 -0.029069914
-0.07380699 0.0492042 0.15013044 0.06688774 -0.26600978 -0.087324664 0.14430393 0.15145673
-0.0011481005 -0.20483986 0.059682973 0.23058854 0.20769033 -0.38054663 -0.20962511 0.11935107
0.31151053 0.041884508 -0.27074105 -0.10409888 0.09781103 0.13997619 -0.027819723 -0.2928362
-0.05258933 -0.0694053 -0.11444671 -0.11416889 0.03158055 -0.012484423 -0.08446736 -0.0492045
-0.018765334 -0.05945662 -0.031658158 0.046470203 0.035065886 -0.007904698 0.053425837 0.059514277
-0.04550664 0.028194739 -0.07991325 -0.08441556 -0.05065963 -0.026355958 0.015747713 -0.059153635
0.012349652 0.052862298 0.057136018 -0.019075453 -0.085384905 0.042160556 0.047306474 -0.023873772
-0.12901078 -0.009047987 0.17678379 -0.02127369 -0.12553291 -0.11316054 0.13528597 0.21238181
0.008049194 -0.11546461 -0.062436946 0.1607651 0.09940461 -0.049518943 -0.03995917 0.005554276
-0.016410952 -0.031452484 -0.115034096 0.019782055 -0.05589741 -0.17362197 -0.15933894 0.025037713
00000000: 1fe9 743d cc70 9ebd 2a82 e3bd f875 60bd
00000010: 997b 813c 8085 be3c 1e7e 953d 506c 8a3d
00000020: c027 5ebc 3d8d acbc 0aef cc3d ca63 b63d
00000030: 76f0 f53d e0bb a2bd 4637 c2bd 8a53 373d
00000040: cfcc ce3d 05f9 c23d b6ba 0fbd 4fff e5bd
00000050: 60fe fbbd d600 723d f153 843d a91f 37bd
00000060: 57ce 0cbd 73d3 03bc 8c0e 25be 7edb 0cbd
00000070: 8c17 bc3c dce9 58bc a7a7 213d b9bd c3bc
00000080: 6aec 3bbe 3c66 adbd 48ae 7bbc 138b 653e
00000090: d5a3 9e3d 773c e2bd 6196 08be 5bc1 babd
000000a0: 310e fa3d f5ed 533e 5d81 fa3b 1c9a 36be
000000b0: 449d bdbd 7803 53bd 4482 7e3e a4cb 753e
000000c0: 6017 da3c bb60 f1bd b725 aebb 9545 283d
000000d0: 6e54 363d 3e0f 68bc f3b4 983d f892 5abd
000000e0: 9295 b73b 0134 873d ce16 423c 387e 423d
000000f0: c96b 27bd 514b a3bc 65a0 9abd a391 433d
00000100: 50f9 323d f025 e73c e3b2 5cbc bd1d aabc
00000110: c70c 98bd 41bc 9d3c fd27 20bd 5ec8 a8bd
00000120: 3324 42bd 5ccb 02be 7b46 8bbd 2230 a5bb
00000130: 01b8 b33c e61c 1fbd 2b29 0f3d 0e4b 6c3d
00000140: 4f49 653b dd4a 603d e82c acbd ae83 013b
00000150: fc22 a7bb 5186 59bd aefe d2bc bb8a 733d
00000160: 4dad 66bd 9742 12bc c985 debb be46 9abc
00000170: 9075 8ebc 38fc 63bc f546 bbbd 36ef c6bd
00000180: 32c6 8e3a 5029 153d e1fd d13d 9780 603d
00000190: 46a8 1fbe 2a04 5abe a6a8 8fbd b2f0 a53c
000001a0: 50bc a93d 9a90 8fbd 35e8 c9ba 25bd 8a3d
000001b0: 94de f23c 7631 803d c534 053e a5c9 09be
000001c0: 55fd 08bd 32de 95bc 5c1e a63d 36e8 33bd
000001d0: 230e 99bc 50b1 85bd 4a8d 02be 1abb 81bd
000001e0: 731c 70bc d861 c03d adbf 72bd 9c73 53be
000001f0: 6cb7 23bd 30d8 043d 55d2 9f3c e9dd 2bbd
00000200: 6927 33bc aa62 8b3c 9cef 133e 9d0b 333d
00000210: de02 80bc 6a2d e73d 859f 54bd 32cd a33d
00000220: 3a5d 233e cafd 64bd e5fd 2a3d b5eb 263d
00000230: c620 2fbd 2a34 8c3d f4d7 273d e5b8 bf3a
00000240: e60e 90bd 029d e3bd 2f28 50bd 4ec1 193d
00000250: 0575 37bd 55df 9dbd 8f77 90bd 47c7 09be
00000260: c90b 0fbe 3160 abbb 809c a93d 2cdc 75bd
00000270: ad7a 6abe 1aec c1bd 41af bf3d baaa a13c
00000280: b5c6 6b3c a7d7 02bd 4c63 9abc 8d8e d43d
00000290: 5365 23be c6a4 483d ba79 673d 8905 823d
000002a0: e3eb 20bd 0429 1fbe 0597 74bc 68be 5abd
000002b0: 959b 883d f74f e53d 9ae2 a5bd 0724 eebc
000002c0: 1f28 97bd 588a 493d cbbb 193e 70fc 883d
000002d0: 6f32 88be 46d7 b2bd 69c4 133e 7917 1b3e
000002e0: dc7b 96ba 8ac1 51be 2276 743d 671f 6c3e
000002f0: c6ac 543e 02d7 c2be f7a7 56be 556e f43d
00000300: 4f7e 9f3e 178f 2b3d 929e 8abe cb31 d5bd
00000310: 2651 c83d eb55 0f3e 30e6 e3bc a0ee 95be
00000320: e967 57bd 5e24 8ebd 0963 eabd 61d1 e9bd
00000330: 9b5a 013d 778b 4cbc 39fd acbd a88a 49bd
00000340: c2b9 99bc c988 73bd fcab 01bd 8a57 3e3d
00000350: 3fa1 0f3d b582 01bc 0dd5 5a3d 3ec5 733d
00000360: 2c65 3abd a7f8 e63c 8fa9 a3bd 11e2 acbd
00000370: 7980 4fbd 73e8 d7bc 5901 813c 154b 72bd
00000380: 3256 4a3c 2386 583d 7507 6a3d 2044 9cbc
00000390: 48de aebd 8cb0 2c3d 6fc4 413d ee92 c3bc
000003a0: 671b 04be 023e 14bc cf06 353e 2946 aebc
000003b0: b38b 00be b7c0 e7bd 6888 0a3e 9e7a 593e
000003c0: c4e0 033c b678 ecbd e2bd 7fbd 9b9f 243e
000003d0: a594 cb3d 60d4 4abd 3aac 23bd a500 b63b
000003e0: 4370 86bc 52d4 00bd ff96 ebbd fa0d a23c
000003f0: aff4 64bd f5c9 31be bf29 23be e41b cd3c

fc1.weight f4 [120, 400]
0.009711865 -0.0040351455 0.043126203 0.054094654 -0.050065685 -0.022516074 0.011728489 0.010220682
0.005760327 0.011271255 0.024579499 0.014091536 0.028663117 -0.0012079126 0.024630243 0.017372321
-0.005463213 -0.006781555 0.05410065 0.019519962 -0.02434016 -0.0010196945 -0.0061041494 0.026170589
-0.0010374839 0.0043560276 0.013351438 0.02002535 0.015465397 0.0030479678 -0.018780913 -0.038686395
-0.039688937 -0.0066927825 0.005025227 -0.00853706 -0.026425336 -0.009930257 -0.0017124054 -0.012179333
0.00760765 -0.016286422 0.012064775 0.007867745 -0.0056058876 -0.047362812 0.009386539 0.0029562858
-0.022850372 -0.008860246 0.01443359 0.017678767 0.020144224 -0.046163015 -0.025592001 0.055834297
0.010158128 -0.004108584 -0.021981806 -0.020101268 0.018946307 0.008769839 -0.0129654175 -0.023262471
-0.03596219 -0.0041237585 -0.0013891404 -0.014672414 -0.02655134 -0.011467336 -0.01675095 0.0350286
0.0623378 0.04084436 -0.0027399762 -0.014272269 -0.04469313 0.038985495 -0.015445326 -0.017397454
0.012038071 0.014661787 0.023710333 -0.020017087 -0.0035782475 -0.023134332 -0.008627494 0.034493096
0.0042760964 -0.02817519 -0.030380946 -0.026377948 -0.0060273395 0.024098888 0.04974444 0.003936391
0.03684994 0.034012813 0.038806 0.03213211 0.010048308 0.03831158 0.0015924143 0.0046011806
-0.0059466027 0.013303569 0.032501075 0.009807142 -0.0032124526 0.016010836 0.054777354 0.02664627
-0.010655586 -0.019787341 -0.018317169 -0.029227925 -0.011843303 -0.012465668 -0.023807889 0.012434922
-0.014234497 0.007791433 0.027269028 0.0589553 0.013243783 -0.02711175 0.01955233 0.01267677
-0.0009932949 0.0063582067 0.016064705 0.018776866 0.013285447 0.010610743 -0.012694974 0.016707333
0.03471683 -0.030159477 -0.005880348 -0.0330152 -0.023326192 -0.0013890524 0.008475465 0.001975726
-0.010435302 0.0023085664 -0.020844012 -0.027318183 0.01875365 0.022244493 0.002821892 0.025096826
-0.008485737 -0.03600573 0.0009627896 0.010899253 0.03080759 -0.026264414 -0.047015805 -0.010437978
0.0399047 -0.0434384 -0.05084776 -0.010027663 -0.017636424 0.00079602416 -0.02694429 -0.033525404
0.0078254 -0.011811328 0.03376757 -0.0015815233 -0.004288253 0.007790374 -0.0192681 0.011824025
0.011456043 0.020151474 0.003041492 -0.016086714 -0.00210467 -0.035733063 -0.0123087205 0.016673487
-0.0014076236 0.0074234307 -0.011526424 -0.017538788 0.010354535 0.016264634 0.006855949 -0.017979564
0.029573672 -0.006737087 0.0035841635 -0.020674698 -0.011209631 0.029775403 0.010441403 0.008080949
-0.01655764 0.0016445841 0.011148572 -0.011495814 -0.01600756 -0.0012400232 0.0006137901 0.00991321
0.023621306 -0.0019862538 -0.025381887 -0.0024714384 -0.043985114 -0.03745555 -0.0149732875 -0.029195393
-0.0035567202 -0.01955897 0.0064570676 -0.023516476 0.0005607613 0.0038185786 -0.00030456323 0.0212458
0.08494576 -0.0397349 -0.041313104 -0.015500341 0.008015831 0.01596365 -0.010690499 0.025907177
-0.0134790735 0.0056121424 -0.018945605 -0.054203816 -0.011095131 0.017763862 0.0041781855 -0.013125553
-0.044652272 0.0265065 0.006072369 -0.029340193 -0.009361744 -0.030617012 0.00446861 -0.03871532
-0.034983173 -0.00016234524 -0.02802463 0.013113243 0.0036151058 -0.025993826 0.018500928 0.0027653317
00000000: 841e 1f3c 4139 84bb 1aa5 303d 5b92 5d3d
00000010: ad11 4dbd a173 b8bc d928 403c a674 273c
00000020: 20c1 bc3b 12ab 383c f25a c93c 30e0 663c
00000030: eace ea3c d252 9eba 5dc5 c93c 6650 8e3c
00000040: c104 b3bb ce37 debb a598 5d3d 54e8 9f3c
00000050: 0465 c7bc 45a7 85ba 5105 c8bb b463 d63c
00000060: 2ffc 87ba 02bd 8e3b fdbf 5a3c 340c a43c
00000070: 9462 7d3c 6ac0 473b 6eda 99bc a075 1ebd
00000080: de90 22bd 214f dbbb a9aa a43b 06df 0bbc
00000090: f279 d8bc 84b2 22bc ca72 e0ba d38b 47bc
000000a0: 9849 f93b 1a6b 85bc 56ab 453c b7e7 003c
000000b0: 98b1 b7bb 82ff 41bd 00ca 193c 3fbe 413b
000000c0: b430 bbbc 912a 11bc dd7a 6c3c 10d3 903c
000000d0: 8005 a53c 6e15 3dbd 51a6 d1bc 81b2 643d
000000e0: 476e 263c 4da1 86bb 3013 b4bc 6aab a4bc
000000f0: 4935 9b3c 5faf 0f3c e76c 54bc f090 bebc
00000100: 174d 13bd 9820 87bb d113 b6ba 9164 70bc
00000110: 3282 d9bc 7ee1 3bbc 4a39 89bc 267a 0f3d
00000120: ec55 7f3d 6a4c 273d 2c91 33bb 3cd6 69bc
00000130: 2510 37bd 41af 1f3d 650e 7dbc 1b85 8ebc
00000140: 543b 453c fe37 703c 2c3c c23c e0fa a3bc
00000150: 0881 6abb 3684 bdbc 555a 0dbc a248 0d3d
00000160: 7f1e 8c3b a8cf e6bc 76e1 f8bc 9116 d8bc
00000170: fd80 c5bb 086b c53c d3c0 4b3d d7fc 803b
00000180: f6ef 163d 0551 0b3d 0af3 1e3d f69c 033d
00000190: a9a1 243c 9aec 1c3d 8fb8 d03a 80c5 963b
000001a0: b8db c2bb 36f7 593c d91f 053d 23ae 203c
000001b0: 0388 52bb 2829 833c 385e 603d 4749 da3c
000001c0: c494 2ebc 1019 a2bc e30d 96bc 676f efbc
000001d0: 6a0a 42bc cd3c 4cbc c308 c3bc d8bb 4b3c
000001e0: cf37 69bc 474f ff3b 4c63 df3c 1d7b 713d
000001f0: 74fc 583c 7619 debc 352c a03c 3ab2 4f3c
00000200: 7231 82ba 8158 d03b 219a 833c f1d1 993c
00000210: 34ab 593c afd8 2d3c 95fe 4fbc d1dd 883c
00000220: 3c33 0e3d 0211 f7bc efaf c0bb f23a 07bd
00000230: 9216 bfbc dd10 b6ba addc 0a3c 2f7b 013b
00000240: d4f8 2abc 514b 173b 10c1 aabc 62ca dfbc
00000250: 41a1 993c 153a b63c 7eef 383b dc97 cd3c
00000260: c307 0bbc bf7a 13bd b763 7c3a c892 323c
00000270: 3360 fc3c 7828 d7bc a593 40bd 0e04 2bbc
00000280: 1c73 233d 77ec 31bd be45 50bd 114b 24bc
00000290: 437a 90bc 47ac 503a 46ba dcbc ef51 09bd
000002a0: 1b36 003c 4d84 41bc dd4f 0a3d 1e4b cfba
000002b0: 7984 8cbb 6546 ff3b 22d8 9dbc 8eb9 413c
000002c0: 21b2 3b3c b414 a53c c553 473b 49c8 83bc
000002d0: 81ee 09bb d55c 12bd 84aa 49bc d696 883c
000002e0: 0380 b8ba 4040 f33b 54d9 3cbc 81ad 8fbc
000002f0: 11a6 293c 693d 853c dea7 e03b e149 93bc
00000300: 7c44 f23c c8c2 dcbb 49e4 6a3b fc5d a9bc
00000310: 9aa8 37bc 8ceb f33c 6b12 2b3c f565 043c
00000320: e3a3 87bc 168f d73a 80a8 363c f058 3cbc
00000330: 4922 83bc 4688 a2ba c2e6 203a 046b 223c
00000340: 7881 c13c cf2b 02bb aded cfbc dbf7 21bb
00000350: bc29 34bd fe6a 19bd 8552 75bc 2d2b efbc
00000360: dd17 69bb 223a a0bc cf95 d33b a0a5 c0bc
00000370: 0e00 133a 1e41 7a3b c9ad 9fb9 ac0b ae3c
00000380: 0bf8 ad3d 10c1 22bd ee37 29bd 24f5 7dbc
00000390: d554 033c 33c6 823c 3427 2fbc 4a3b d43c
000003a0: 55d7 5cbc 10e6 b73b d033 9bbc d204 5ebd
000003b0: 5ac8 35bc 8585 913c 29e9 883b 8f0c 57bc
000003c0: 4de5 36bd 2924 d93c b9fa c63b d85a f0bc
000003d0: 0062 19bc 87d0 fabc 6b6d 923b f593 1ebd
000003e0: 844a 0fbd 383b 2ab9 e993 e5bc edd8 563c
000003f0: 69eb 6c3b 01f1 d4bc 428f 973c 913a 353b

fc1.bias f4 [120]
0.00016782098 0.030514233 -0.018116437 -0.0218308 -0.03611935 0.047399696 0.02298955 0.027035346
-0.013332277 0.019055804 0.044475906 0.03723445 -0.017992908 0.028015967 0.003630992 0.0055126576
0.026979659 -0.02132672 0.04387 0.039196994 -0.031513877 -0.024975974 -0.022176404 -0.0046128277
0.022288376 0.0042200205 0.013492473 -0.047307994 -0.04031945 0.0053050146 -0.020915443 0.05153631
0.048888564 -0.033643667 -0.029167786 0.024720982 0.062478244 0.026877142 0.020179372 0.030564507
0.026630888 0.0043527163 0.011073986 -0.034297604 -0.050500117 -0.014573888 -0.040802874 -0.009139929
-0.020056613 -0.012290157 0.016985256 -0.0011497191 0.020232026 0.038624536 -0.032525312 0.036258005
-0.027729258 0.012049972 -0.041914918 -0.008274737 -0.027652942 -0.040174 -0.015875395 -0.04648517
0.014247771 0.034380488 0.038213786 0.012614151 -0.00291876 -0.028641732 -0.016385404 -0.0028205388
-0.01362696 -0.012925052 -0.029330116 -0.037826505 0.0067202486 0.046036974 0.03517763 -0.046009094
0.040690783 -0.005776953 -0.0044284803 0.050224423 -0.051787216 -0.009265913 0.015019984 -0.048186265
0.034240384 0.02350591 -0.04678499 0.011873679 -0.04383883 0.029165758 0.035340838 -0.059331287
-0.043555185 -0.046788193 0.05057548 -0.048547972 0.028115094 -0.020043071 -0.017078422 -0.025407601
0.018990707 -0.03271433 0.02950962 0.059655286 0.0010332672 0.011250941 -0.021697016 0.006163025
0.02490661 0.010803638 -0.037290446 0.043239895 0.044329505 0.04175802 0.018299399 0.011619133
00000000: 1af9 2f39 fcf8 f93c ec68 94bc 82d6 b2bc
00000010: e2f1 13bd 2f26 423d 9554 bc3c 3b79 dd3c
00000020: 9f6f 5abc eb1a 9c3c 5e2c 363d 2783 183d
00000030: dd65 93bc be81 e53c f0f5 6d3b 86a3 b43b
00000040: 7204 dd3c 60b5 aebc 07b1 333d 078d 203d
00000050: b214 01bd 6a9a ccbc 4aab b5bc 3427 97bb
00000060: 1d96 b63c 1948 8a3b 890f 5d3c 07c6 41bd
00000070: 0226 25bd b0d5 ad3b dd56 abbc bd17 533d
00000080: 603f 483d f1cd 09bd 48f1 eebc a883 ca3c
00000090: 30e9 7f3d 742d dc3c 364f a53c 6b62 fa3c
000000a0: 0529 da3c 3ba1 8e3b aa6f 353c a57b 0cbd
000000b0: 36d9 4ebd 51c7 6ebc ea20 27bd a4bf 15bc
000000c0: c44d a4bc a85c 49bc aa24 8b3c 2cb2 96ba
000000d0: a2bd a53c c334 1e3d 4339 05bd 4683 143d
000000e0: 7828 e3bc 3f6d 453c faae 2bbd c392 07bc
000000f0: 6c88 e2bc 7e8d 24bd 1e0d 82bc 3c67 3ebd
00000100: 7c6f 693c 8ed2 0c3d 0f86 1c3d 96ab 4e3c
00000110: ab48 3fbb 11a2 eabc af3a 86bc cad8 38bb
00000120: 9d43 5fbc 99c3 53bc b645 f0bc f7ef 1abd
00000130: 8835 dc3b 4491 3c3d 6b16 103d 0874 3cbd
00000140: 61ab 263d 984c bdbb c91c 91bb 20b8 4d3d
00000150: d51e 54bd 0ed0 17bc 6116 763c f65e 45bd
00000160: a53f 0c3d 778f c03c 9ea1 3fbd d289 423c
00000170: 5890 33bd 07ed ee3c 8ec1 103d 5d05 73bd
00000180: ec66 32bd faa4 3fbd 3c28 4f3d 3dda 46bd
00000190: a051 e63c 5e31 a4bc 0ce8 8bbc 9a23 d0bc
000001a0: 6692 9b3c 76ff 05bd 29be f13c 1a59 743d
000001b0: b26e 873a de55 383c f1bd b1bc 33f3 c93b
000001c0: f208 cc3c be01 313c debd 18bd 511c 313d
000001d0: db92 353d 750a 2b3d 9fe8 953c 2d5e 3e3c

fc2.weight f4 [84, 120]
-0.033038802 0.053605925 -0.0040236465 -0.006569942 0.0032142773 -0.02493852 -0.034216214 -0.05509549
-0.033085816 -0.025845418 -0.009391673 0.074639365 -0.0030712346 0.06459913 0.051588606 -0.037498873
-0.03189213 0.08247904 -0.021445623 -0.02348829 -0.042835474 0.013928724 0.03705887 0.011264613
0.005492384 0.008949905 -0.027429227 -0.018739171 0.026122732 0.1023949 -0.023953496 -0.03428724
-0.03667992 -0.003963615 -0.018407231 -0.038066946 -0.05850866 -0.009754608 0.008889186 -0.019100022
-0.042828396 0.02546941 0.0056918473 -0.009924245 -0.017805805 0.03071674 -0.020823088 -0.04771659
0.030716224 -0.004389262 0.032531578 0.0025384156 0.014404123 -0.0007957289 -0.035307746 -0.03030413
0.04345539 -0.017555075 -0.0034818428 0.036204625 -0.008432045 -0.0044391174 0.060848325 0.017523183
0.0055177966 -0.016988598 0.02576903 0.06518159 -0.03476641 -0.02172926 0.04854381 -0.027336344
-0.03858114 -0.0060663554 0.004241108 0.0114368005 -0.0036926304 -0.013560079 -0.033601277 -0.054503232
0.08708472 -0.053738564 -0.021223672 -0.0076567084 0.012616274 -0.04225392 -0.0011912322 -0.011406801
-0.03551969 0.08547121 -0.015407509 0.012205798 -0.028440958 -0.051748373 0.012885255 -0.010417802
-0.07109812 -0.07065036 -0.078344606 -0.00044139975 -0.06861906 0.024931196 0.015792776 -0.03028566
-0.008510323 -0.0022191338 0.07939065 -0.024078242 -0.013832916 -0.02264266 0.0065878658 -0.016083138
0.015212981 -0.035876766 -0.048432656 0.009514037 -0.02624882 0.0060199415 -0.05780084 0.018474098
0.016200846 -0.011172509 0.00945215 -0.024922097 0.011710797 -0.0056911027 -0.0060095456 -0.003153013
0.018936621 -0.024619043 -0.0010949505 -0.008508627 -0.06047975 0.03139739 0.019633094 0.017218655
-0.019815482 -0.038172785 0.03890509 -0.0050789737 0.07846828 0.0070590246 0.019847324 0.008001698
0.041874733 -0.03239381 0.023453971 0.033224262 0.06620199 -0.09657474 0.033072036 0.09635108
0.0031779383 -0.004737526 0.043898053 0.042727824 -0.0045451573 -0.07989612 0.019417934 0.041231137
-0.024222137 -0.00804817 -0.027967773 -0.027296714 0.043193713 -0.04273109 0.04866806 -0.010343214
-0.00034212632 -0.039063912 -0.07154237 0.0063017462 -0.028286297 -0.02082663 -0.06430388 0.03589269
0.040143892 0.009332505 -0.06161116 -0.072534576 0.06479188 -0.024003953 -0.041933723 -0.01072791
-0.017806796 0.011948767 -0.012455836 -0.11273354 0.047545545 0.070134595 -0.07319544 -0.007158225
0.16392696 -0.007930836 -0.09743215 -0.026693985 0.009867129 0.030588904 0.0030080786 0.027075714
-0.12944524 0.04362971 -0.027776944 0.07452495 0.015131177 -0.009825662 -0.013369396 0.037289612
-0.0126199 -0.14974685 0.0032263969 -0.007441609 -0.011963911 0.025166268 0.05559049 -0.03552761
0.064354055 0.04582694 0.11623817 0.025544025 -0.011863234 -0.043694433 -0.021652145 -0.022734428
0.07676755 0.011212133 -0.009271744 0.023997817 -0.0044627087 0.022655217 0.042890877 -0.0443844
0.04006252 -0.045116145 0.032403275 0.041792683 -0.0035292006 0.08310891 -0.07908571 -0.06382907
-0.013461905 0.004153159 0.028808674 -0.033424508 -0.007912556 -0.008707306 -0.009887821 0.041801352
0.00931096 0.007870298 0.023411458 -0.016312644 0.010285945 -0.02739179 0.040787134 0.028610462
00000000: b253 07bd e391 5b3d cbd8 83bb ab48 d7bb
00000010: a0a6 523b de4b ccbc 4d26 0cbd cfab 61bd
00000020: fe84 07bd c5b9 d3bc 88df 19bc 86dc 983d
00000030: c446 49bb 8c4c 843d 934e 533d 6b98 19bd
00000040: 52a1 02bd c5ea a83d bbae afbc 846a c0bc
00000050: 4074 2fbd 4e35 643c 0bcb 173d 368f 383c
00000060: 75f9 b33b 9fa2 123c 42b3 e0bc e482 99bc
00000070: 57ff d53c 6bb4 d13d 1f3a c4bc c770 0cbd
00000080: af3d 16bd 36e1 81bb c3ca 96bc 16ec 1bbd
00000090: c7a6 6fbd cbd1 1fbc f3a3 113c a677 9cbc
000000a0: d46c 2fbd 39a5 d03c ad82 ba3b 4d99 22bc
000000b0: 7bdd 91bc aca1 fb3c 2e95 aabc 7972 43bd
000000c0: 97a0 fb3c ccd3 8fbb d53f 053d 8c5b 263b
000000d0: 45ff 6b3c 7698 50ba db9e 10bd 5e40 f8bc
000000e0: 47fe 313d a9cf 8fbc a12f 64bb 4d4b 143d
000000f0: 8f26 0abc 0476 91bb 183c 793d c78c 8f3c
00000100: a2ce b43b ac2b 8bbc 9319 d33c ed7d 853d
00000110: 3967 0ebd 9001 b2bc e0d5 463d 78f0 dfbc
00000120: 4207 1ebd 47c8 c6bb fef8 8a3b 6b61 3b3c
00000130: 0f00 72bb 182b 5ebc 7ea1 09bd c83e 5fbd
00000140: 7959 b23d f81c 5cbd 44dd adbc 20e5 fabb
00000150: 7db4 4e3c 7212 2dbd 1f23 9cba 97e3 3abc
00000160: 187d 11bd 880b af3d c76f 7cbc d4fa 473c
00000170: 03fd e8bc 1af6 53bd ad1c 533c 6eaf 2abc
00000180: e49b 91bd 23b1 90bd 2373 a0bd ac6b e7b9
00000190: 2688 8cbd 823c cc3c da5f 813c a219 f8bc
000001a0: e26e 0bbc e36e 11bb 9197 a23d bc3f c5bc
000001b0: 74a3 62bc 1a7d b9bc 06df d73b c9c0 83bc
000001c0: de3f 793c 84f3 12bd 5261 46bd c3e0 1b3c
000001d0: c407 d7bc ee42 c53b 93c0 6cbd fe56 973c
000001e0: a3b7 843c e60c 37bc 31dd 1a3c 6d29 ccbc
000001f0: a5de 3f3c 6e7c babb b9eb c4bb c8a2 4ebb
00000200: f920 9b3c e0ad c9bc 7184 8fba c567 0bbc
00000210: 9db9 77bd 8d9a 003d 95d5 a03c 230e 8d3c
00000220: 1454 a2bc 115b 1cbd f25a 1f3d 856d a6bb
00000230: fab3 a03d 644f e73b db96 a23c 8e19 033c
00000240: d784 2b3d 5faf 04bd 8b22 c03c 2a16 083d
00000250: e994 873d fac8 c5bd 8b76 073d b753 c53d
00000260: f544 503b 403d 9bbb 72ce 333d 5f03 2f3d
00000270: 8bef 94bb 94a0 a3bd 5c12 9f3c fbe1 283d
00000280: 816d c6bc 79dc 03bc ac1c e5bc 5c9d dfbc
00000290: e4eb 303d cc06 2fbd 2958 473d 9576 29bc
000002a0: 6b5f b3b9 7b01 20bd ce84 92bd e17e ce3b
000002b0: aab8 e7bc 9c9c aabc c1b1 83bd 3704 133d
000002c0: ec6d 243d 5de7 183c fc5b 7cbd 028d 94bd
000002d0: 9bb1 843d f0a3 c4bc b2c2 2bbd 1ec4 2fbc
000002e0: 8fdf 91bc c3c4 433c 9013 4cbc d8e0 e6bd
000002f0: 1ebf 423d baa2 8f3d 7ee7 95bd 8b8f eabb
00000300: 78dc 273e 56f0 01bc 828a c7bd 58ad dabc
00000310: bda9 213c 9595 fa3c 2f23 453b e3cd dd3c
00000320: 4b8d 04be 11b5 323d 798c e3bc 89a0 983d
00000330: c2e8 773c d0fb 20bc 500b 5bbc febc 183d
00000340: b2c3 4ebc 3d57 19be f571 533b bed8 f3bb
00000350: 4804 44bc 7d29 ce3c dbb2 633d 6685 11bd
00000360: 0fcc 833d 08b5 3b3d 470e ee3d b441 d13c
00000370: 035e 42bc eff8 32bd d75f b1bc 8d3d babc
00000380: 4e38 9d3d 18b3 373c 83e8 17bc 1297 c43c
00000390: ea3b 92bb 6f97 b93c 58ae 2f3d 6bcc 35bd
000003a0: 9918 243d b5cb 38bd 4cb9 043d ce2e 2b3d
000003b0: 294a 67bb 0135 aa3d b0f7 a1bd d1b8 82bd
000003c0: 528f 5cbc 3917 883b 2b00 ec3c 23e8 08bd
000003d0: aaa3 01bc 17a9 0ebc 8700 22bc e537 2b3d
000003e0: ff8c 183c 6cf2 003c 63c9 bf3c 18a2 85bc
000003f0: 6186 283c bf64 e0bc 6910 273d 7d60 ea3c

fc2.bias f4 [84]
0.056387022 0.037788987 -0.041207112 0.107463315 -0.055706874 -0.078381866 -0.058644548 -0.008777202
-0.06813093 -0.008865468 -0.019410267 0.0051865955 0.089815095 0.12815407 0.13712016 -0.08787259
-0.078282796 -0.08946944 -0.033809546 -0.014077649 -0.0056947744 0.010354173 0.08467061 0.07594437
-0.07440508 0.13562065 -0.013260728 0.15921634 -0.008371392 -0.08163218 0.05056223 0.006239004
0.03465102 0.096424446 -0.040008515 0.072059266 0.025008671 0.08820007 0.08295186 0.10656988
0.07840127 -0.008434765 0.024682634 -0.053944904 -0.01921087 0.069683865 0.13210179 -0.062022462
0.017883986 -0.0019222312 -0.028349712 -0.059744608 0.043794896 0.060708478 -0.01919601 0.017729808
-0.059930854 0.13747494 -0.014271816 -0.00554475 -0.035750754 -0.071663745 -0.06162392 -0.006639614
-0.08129484 -0.01765728 0.07000205 -0.07469269 -0.04506073 -0.02778917 -0.066517755 0.011962547
0.037665557 -0.04788543 -0.0827361 0.07676093 -0.04808068 0.18581726 -0.058970366 -0.055298302
-0.014198761 -0.0381638 -0.005405024 0.08679669
00000000: 14f6 663d a0c8 1a3d cac8 28bd ba15 dc3d
00000010: e42c 64bd ac86 a0bd 4435 70bd 41ce 0fbc
00000020: 3b88 8bbd 7840 11bc 4802 9fbc 51f4 a93b
00000030: faf0 b73d d23a 033e 3a69 0c3e 8bf6 b3bd
00000040: bb52 a0bd c13b b7bd e17b 0abd f1a5 66bc
00000050: 3b9b babb 8da4 293c c967 ad3d b988 9b3d
00000060: b161 98bd 24e0 0a3e 8643 59bc 9c09 233e
00000070: 2a28 09bc c62e a7bd 571a 4f3d 8f70 cc3b
00000080: 3aee 0d3d 2e7a c53d f8df 23bd cf93 933d
00000090: fcde cc3c 3da2 b43d aae2 a93d 4f41 da3d
000000a0: d890 a03d f831 0abc 3c33 ca3c 55f5 5cbd
000000b0: 1d60 9dbc 6ab6 8e3d b145 073e 440b 7ebd
000000c0: 7081 923c 60f3 fbba a83d e8bc c3b6 74bd
000000d0: 4762 333d 74a9 783d f340 9dbc 1a3e 913c
000000e0: 0e7a 75bd 3bc6 0c3e 56d4 69bc bcb0 b5bb
000000f0: 626f 12bd 71c4 92bd 5d69 7cbd 1e91 d9bb
00000100: e97d a6bd 00a6 90bc 3c5d 8f3d 7bf8 98bd
00000110: 9a91 38bd 1da6 e3bc 763a 88bd 8ffe 433c
00000120: 3347 1a3d 8323 44bd 8b71 a9bd d634 9d3d
00000130: 3ff0 44bd e146 3e3e e98a 71bd 7980 62bd
00000140: eca1 68bc a551 1cbd a11c b1bb 77c2 b13d

fc3.weight f4 [10, 84]
-0.090455234 0.13099436 -0.023904487 -0.15283015 -0.020113464 -0.085404225 -0.077162795 -0.03000668
-0.0257957 -0.026950777 -0.056479096 0.19362475 0.21836565 -0.07278855 -0.107046 0.01038161
-0.010814301 0.03509649 0.11871212 0.19484015 -0.07780463 0.020779962 -0.045023732 -0.007285835
-0.008995696 0.12644792 0.24384402 -0.14244239 0.117859714 0.0043515074 -0.10677558 0.01995849
-0.04243246 -0.23402992 0.06757513 -0.06037794 -0.12814899 -0.16386695 -0.048684426 -0.32502455
-0.03606538 -0.02196176 0.17278755 -0.032591965 0.06169594 -0.048348326 -0.07643441 0.1533254
0.16660951 -0.03743727 0.0015175809 -0.0013306419 0.3093472 -0.3596285 -0.004422168 0.0042565544
-0.016386893 -0.13938458 -0.1777323 -0.12206273 -0.024199912 0.026092108 0.052119896 -0.10844075
0.028657792 0.059320305 -0.05395028 -0.013421031 0.021459298 -0.025450408 7.49419e-05 0.2232979
-0.12080394 -0.0019274557 -0.0071879807 -0.016997904 0.028822089 -0.23033641 0.0135591235 0.00032833754
-0.020485232 -0.003920819 0.21723415 -0.11560024 0.11932745 -0.100901 -0.032319523 0.24989575
-0.025313955 -0.064223774 -0.084907256 0.101603895 -0.09310437 -0.032329343 -0.05361471 -0.12572092
-0.029778287 0.3592499 0.29800114 0.0057879626 -0.022626745 0.006045067 -0.28940833 0.042816523
0.018563524 0.0062347655 0.073697634 0.0019922142 -0.042429388 0.06688529 -0.16066277 -0.018689394
0.035288267 0.03281443 0.043802235 0.04541139 -0.06930377 0.14387551 -0.02264136 0.1402493
-0.09367767 -0.05054963 -0.08190579 0.14066248 0.20903027 0.07099718 -0.27576554 -0.021708498
-0.009765893 0.01792333 0.40738034 0.004913466 -0.123662576 0.0069085285 0.040600084 -0.063680805
-0.09127692 -0.10019967 0.025854912 -0.123172 -0.07045673 0.20010228 0.121306695 -0.10696139
-0.00055514846 -0.019770991 -0.041915767 -0.13536973 -0.028312135 -0.3431051 0.14710614 0.009371255
-0.020244785 -0.027023206 -0.023164518 -0.119865604 -0.032196224 -0.010532365 -0.03706123 -0.10057865
0.012938461 0.35012913 -0.026209416 0.0070186476 -0.038852625 -0.015860733 -0.048341718 -0.1046134
-0.14858839 0.23124613 -0.0044972044 0.17994188 0.032478474 0.05473602 0.107262634 -0.029892007
0.12089542 0.012811676 -0.080688015 -0.05763162 0.051305164 -0.07242511 0.12180392 -0.022754982
0.010151412 -0.0072030714 0.15984997 0.05889043 -0.017271606 0.0107619045 -0.08962465 0.100166604
0.07697274 -0.09535498 0.12017652 -0.1242686 -0.07202654 0.034356833 0.021216085 0.0075819744
0.063598976 0.3144796 0.05465072 0.2089683 0.10766519 -0.17507167 -0.007043806 -0.2682612
-0.026554342 -0.08151885 0.008372097 0.0016879733 0.016200189 0.046187304 -0.008547134 -0.13754836
-0.17828806 -0.010706731 -0.011099267 0.03801113 -0.028955292 -0.22712255 0.0138668595 0.15458365
-0.039424572 -0.0687415 0.35466427 -0.05074963 -0.0070613087 0.0119021665 -0.04784713 -0.09685704
-0.014474311 -0.15857096 0.020144751 0.008845154 -0.054020803 -0.012938978 0.035683755 -0.024909534
0.0052248794 -0.036909617 -0.02902171 0.06549396 -0.097674035 -0.24086604 -0.003096961 0.0106285885
-0.08184111 -0.0004980183 0.25148687 -0.074706 0.09836775 -0.14306779 0.008467163 -0.09726596
00000000: 9840 b9bd 6323 063e 58d3 c3bc 827f 1cbe
00000010: fec4 a4bc 69e8 aebd 8707 9ebd 92d0 f5bc
00000020: 8151 d3bc e0c7 dcbc a056 67bd 9145 463e
00000030: 3f9b 5f3e 2a12 95bd ef3a dbbd a117 2a3c
00000040: 772e 31bc 56c1 0f3d 571f f33d 2d84 473e
00000050: 0958 9fbd bd3a aa3c ce6a 38bd 04be eebb
00000060: af62 13bc 907b 013e 3fb2 793e 6bdc 11be
00000070: 6f60 f13d 1797 8e3b 28ad dabd fd7f a33c
00000080: a9cd 2dbd 8aa5 6fbe d464 8a3d dc4e 77bd
00000090: 7d39 03be bdcc 27be 5269 47bd 9e69 a6be
000000a0: 4bb9 13bd 26e9 b3bc 38ef 303e 277f 05bd
000000b0: e2b4 7c3d e508 46bd a589 9cbd 5501 1d3e
000000c0: af9b 2a3e d357 19bd 91e9 c63a ef68 aeba
000000d0: c262 9e3e 3a21 b8be d5e7 90bb 917a 8b3b
000000e0: ce3d 86bc d5ba 0ebe 75ff 35be 06fc f9bd
000000f0: e53e c6bc 1ebf d53c ac7b 553d 2f16 debd
00000100: bfc3 ea3c d9f9 723d f8fa 5cbd e2e3 5bbc
00000110: 69cb af3c 607d d0bc 202a 9d38 34a8 643e
00000120: 0e68 f7bd aea2 fcba 2789 ebbb 303f 8bbc
00000130: 4d1c ec3c 4fdd 6bbe 1627 5e3c b824 ac39
00000140: a5d0 a7bc 377a 80bb a172 5e3e d2bf ecbd
00000150: f361 f43d 2fa5 cebd 7a61 04bd ace4 7f3e
00000160: 365f cfbc c187 83bd dbe3 adbd b415 d03d
00000170: 81ad bebd c66b 04bd 199b 5bbd fcbc 00be
00000180: 98f1 f3bc 9aef b73e 9b93 983e f3a8 bd3b
00000190: b95b b9bc b315 c63b 542d 94be 6160 2f3d
000001a0: 8812 983c 014d cc3b c9ee 963d cf8f 023b
000001b0: 70ca 2dbd 28fb 883d c884 24be 801a 99bc
000001c0: 6e8a 103d 6c68 063d f969 333d 4b01 3a3d
000001d0: 23ef 8dbd 1a54 133e 607a b9bc 839d 0f3e
000001e0: 14da bfbd 210d 4fbd 39be a7bd d309 103e
000001f0: 080c 563e f866 913d 2431 8dbe 05d6 b1bc
00000200: 2001 20bc f3d3 923c 2894 d03e 2401 a13b
00000210: ce42 fdbd f060 e23b 464c 263d 156b 82bd
00000220: 65ef babd 7c35 cdbd aecd d33c 9a41 fcbd
00000230: 9e4b 90bd 9de7 4c3e a56f f83d 930e dbbd
00000240: 6287 11ba c6f6 a1bc deaf 2bbd 5d9e 0abe
00000250: daee e7bc 79ab afbe fea2 163e e489 193c
00000260: 64d8 a5bc c55f ddbc 84c3 bdbc 197c f5bd
00000270: 30e0 03bd f18f 2cbc 84cd 17bd 2efc cdbd
00000280: d7fb 533c 2044 b33e 21b5 d6bc affc e53b
00000290: ee23 1fbd 5eee 81bc f701 46bd 8d3f d6bd
000002a0: 8e27 18be c9cb 6c3e 495d 93bb af42 383e
000002b0: 2608 053d e032 603d 83ac db3d 15e0 f4bc
000002c0: 0598 f73d 10e8 513c c23f a5bd 220f 6cbd
000002d0: 5d25 523d 9e53 94bd 5574 f93d a868 babc
000002e0: 1c52 263c be07 ecbb b6af 233e 1737 713d
000002f0: 2f7d 8dbc b352 303c 218d b7bd 2624 cd3d
00000300: e2a3 9d3d 7949 c3bd 1b1f f63d 8980 febd
00000310: a782 93bd c0b9 0c3d 5bcd ad3c 3672 f83b
00000320: 2e40 823d 7803 a13e 6fd9 5f3d c9fb 553e
00000330: 917f dc3d fd45 33be bacf e6bb 8859 89be
00000340: 7e88 d9bc 5bf3 a6bd 1f2b 093c fc3e dd3a
00000350: 42b6 843c e62e 3d3d 4709 0cbc 7ad9 0cbe
00000360: 2591 36be 496b 2fbc b3d9 35bc 8fb1 1b3d
00000370: a633 edbc d092 68be d331 633c 2d4b 1e3e
00000380: a97b 21bd 58c8 8cbd 8e96 b53e d8de 4fbd
00000390: 8d62 e7bb 4e01 433c 5afb 43bd fc5c c6bd
000003a0: a925 6dbc 6d60 22be 9b06 a53c 44eb 103c
000003b0: eb44 5dbd 02fe 53bc 2129 123d 140f ccbc
000003c0: 7735 ab3b 8a2e 17bd f0be edbc b321 863d
000003d0: 5309 c8bd 96a5 76be 62f6 4abb 8823 2e3c
000003e0: 509c a7bd 718d 02ba e3c2 803e 76ff 98bd
000003f0: 0875 c93d 5d80 12be dbb9 0a3c 6033 c7bd

fc3.bias f4 [10]
-0.057348438 0.22154666 -0.12857163 -0.053387463 -0.00055873854 -0.039067928 -0.10243721 -0.0017728142
0.10915683 0.022738012
00000000: 32e6 6abd 21dd 623e 48a8 03be d0ac 5abd
00000010: 4f78 12ba b105 20bd 9aca d1bd c65d e8ba
00000020: 9e8d df3d 1145 ba3c
